net.pth (torch, 4047 bytes, 7 tensors)

rnn.weight_ih_l0 f4 [32, 1]
000000 11 1e 6d 3e 3a 00 62 be 2d 49 4e 3e 09 6b ec 3d
       0.23156 -0.22070399 0.20145102 0.11543853
000010 a5 da 77 be a4 80 a8 3e 5d 92 47 3d 4c 18 a9 be
       -0.242045 0.32910645 0.048723567 -0.3302635
000020 ea 4b 4c 3d b7 f1 53 3a 3e 75 82 be f8 e5 73 bd
       0.049877085 0.00080850295 -0.25480074 -0.059545487
000030 ad b2 b3 be 73 93 1f be 6c f2 b2 be 61 7d 93 3b
       -0.35097256 -0.15583591 -0.34950578 0.0045010303
000040 f2 8d 8f be 2d 59 aa 3d 53 b3 91 3e cd 30 b1 be
       -0.28037983 0.0831779 0.28457126 -0.34607545
000050 ca 71 b7 3a 70 cd 74 be 0a cb a5 be c5 82 f4 bd
       0.0013995704 -0.23906493 -0.3238147 -0.11939005
000060 c8 b6 25 3d f3 e5 4f 3e c7 de 94 3e 02 0e 01 3e
       0.040457517 0.20302562 0.29076216 0.12603
000070 8a 24 41 3e fe 69 17 be aa f0 c5 3d 64 72 79 be
       0.18861595 -0.14786527 0.09665044 -0.24360043

rnn.weight_hh_l0 f4 [32, 8]
000000 7a 0f e1 3e d8 f0 93 be ce 61 f1 3e 14 9a 62 3e
       0.4395712 -0.28894687 0.47144932 0.22129089
000010 ac 23 e2 bd 3f 6b 82 be 91 58 f6 be 1f 12 a2 be
       -0.1104196 -0.25472447 -0.48114446 -0.3165445
000020 f3 1c 34 be 10 c6 c4 be 34 f2 be 3d b3 3a 69 3d
       -0.17589168 -0.3843236 0.0932354 0.056940746
000030 cb dd 14 3e e8 b5 95 be 59 77 4c bc c7 ed 1b 3e
       0.14537732 -0.29240346 -0.012479627 0.15227424
000040 e7 22 2f bd e3 67 a9 bd 66 e4 e3 3c a7 24 8b 3c
       -0.042757895 -0.08271768 0.02781887 0.01698525
000050 f3 68 a1 3e 39 48 ac be ad 4d df bd 4d 2e 76 be
       0.31525382 -0.33648852 -0.10903487 -0.240411
000060 3d 49 91 3e 03 d4 2f bc 8f 75 cd 3e 9b 77 b0 3d
       0.2837619 -0.0107317 0.40128753 0.08616563
000070 6f 4a 9a 3e cb cc 12 3f 1b 92 b5 be fd 0c d7 bd
       0.30134913 0.5734374 -0.35463032 -0.10500524
000080 7b 64 45 3e 93 af 71 3e 87 6a 1b 3e 1c 88 cf 3e
       0.19276612 0.23602132 0.15177356 0.4053353
000090 cc e3 c7 3d c0 5a b5 3d af 58 ab be 83 4c 04 be
       0.09760246 0.088552 -0.33466098 -0.12919812
0000a0 1a e5 ec 3e be e8 5b be 3e 10 a2 3d b7 20 e0 3c
       0.4626854 -0.21475503 0.07913254 0.02735935
0000b0 98 9c 20 3e 8b b8 18 3a c1 39 97 be e1 c5 2b be
       0.15684736 0.0005825839 -0.2953625 -0.16774704
0000c0 49 56 3b bf 81 66 94 3e 2e 96 8d be 35 b4 18 bf
       -0.73178536 0.28984454 -0.2765364 -0.59649974
0000d0 cc 78 a8 3d d7 90 34 bf d3 c5 84 3e 3b 9a 5f bc
       0.08226165 -0.7053351 0.25932178 -0.013647611
0000e0 35 73 0e 3e c1 65 5e 3e bf c1 be bd f6 93 95 bd
       0.13911135 0.21718504 -0.09314298 -0.07303612
0000f0 a4 f9 b4 bd dd 12 e0 3e 6e b8 43 be 2e 43 04 3e
       -0.08836678 0.43764392 -0.19113323 0.12916252
000100 6d b1 c2 3e fc 1b c6 be 80 ce d5 3e 82 6e 19 3f
       0.3802599 -0.38693225 0.4175911 0.59934247
000110 cd ea a1 3e 78 e3 95 3e 98 3b 9c bd 2b 14 b0 be
       0.3162445 0.29275107 -0.07628554 -0.34390387
000120 24 ac ab bd cb ed 16 be 6a 39 ea 3e 9c eb af 3e
       -0.083824426 -0.14739148 0.45746928 0.34359443
000130 bc 15 74 3e 45 3e 26 bf a2 ac 34 be 4c 7c a0 bd
       0.23836416 -0.64938766 -0.17643979 -0.07836208
000140 6c 6c 84 3e 7e d5 9c 3d a1 8c 26 3e c3 4a 6f 3e
       0.2586397 0.07657908 0.16264583 0.23368363
000150 4b 23 94 be de 7a b4 be 6b cc 98 3e 87 de 0e 3e
       -0.28933176 -0.3524999 0.2984346 0.13952075
000160 4d 7b 0b bd 7a 31 69 be 33 87 8f bd 07 d2 71 3e
       -0.034053136 -0.2277278 -0.07008209 0.23615275
000170 ac 8d c7 3e 42 87 d3 3e be 43 5d be 37 3a 7a 3d
       0.38975275 0.4131413 -0.21607873 0.061090674
000180 e5 1e fa bc e9 06 92 3e b6 fc 46 3e 1e 48 25 bc
       -0.03053231 0.28520897 0.19432339 -0.010087995
000190 24 f7 3f be 0c 06 4f 3e 71 87 e6 bd c5 98 90 3e
       -0.1874662 0.2021715 -0.11256302 0.28241554
0001a0 b8 78 65 be 7e 0a 9f 3e 12 f8 ab 3e 46 99 38 be
       -0.22409332 0.31062692 0.335877 -0.18027219
0001b0 6c e7 05 3f 33 03 c6 be 96 8c 1f 3d 5f c1 38 3e
       0.52306247 -0.38674316 0.038952433 0.18042515
0001c0 fb 2d 7e 3e 4b ae 28 be 08 79 f1 bd 90 44 5b bc
       0.24822228 -0.16472737 -0.11790663 -0.013383046
0001d0 7a 76 57 be 7c f1 09 bd f0 64 80 3e 8c fd 5c be
       -0.21041289 -0.033677563 0.2507701 -0.21581095
0001e0 e6 c2 16 3e 09 b6 e8 3d cf a1 92 be d9 2f 34 be
       0.14722785 0.113628455 -0.28639075 -0.17596377
0001f0 ee 02 96 be 81 8d 81 3c 05 ac 61 3e ea 05 55 3d
       -0.2929911 0.015814545 0.22038276 0.052007593
000200 bc 80 4d 3e 2f e6 b6 3e 64 6c b5 be 16 2f 4c 3e
       0.2006864 0.3572249 -0.35434258 0.19939837
000210 8e c4 11 be ad 3c a1 3d 00 f3 8d be 2d 0f 1a 3e
       -0.14235136 0.07872901 -0.27724457 0.15044852
000220 98 ec d6 be d1 40 4a 3e 3d ce 34 3d 0c 5d 9d bd
       -0.41977382 0.19751288 0.044141997 -0.07683763
000230 70 c4 60 be d2 3a 93 3d e5 c5 ef bd 62 44 7a 3e
       -0.21949935 0.071889535 -0.11707667 0.24440148
000240 17 68 71 3d 38 68 b8 be fc d1 73 be d1 e4 5c 3d
       0.05893716 -0.36017013 -0.23810571 0.053929154
000250 42 94 51 be 94 04 78 3d 6a 6a 97 3e d0 dc 9a be
       -0.20466712 0.06055124 0.29573375 -0.30246592
000260 59 7c aa bd 39 50 47 be 16 c1 e8 3e 01 f0 36 be
       -0.08324499 -0.19464196 0.45459813 -0.17864992
000270 4e e2 95 bd a5 87 86 3d a2 95 d6 be 5b 54 3f 3d
       -0.07318555 0.06568841 -0.41911036 0.046711307
000280 8a f5 ed 3d 84 69 1c 3e dc 9e dc 3d 10 62 e3 bd
       0.116190985 0.15274626 0.107724875 -0.11102688
000290 8f 71 ca be 2c 13 93 be 5e 19 d2 bd 6b 9a 86 3c
       -0.39539763 -0.28725564 -0.10258745 0.016431054
0002a0 43 da 0e bc d0 b8 51 3d 5b 6c 39 bd a6 1c 2b 3e
       -0.00871903 0.05120164 -0.04526935 0.16710147
0002b0 9e 2c d0 3d d7 8e b5 be 16 b1 eb 3e d9 c7 ef bd
       0.1016476 -0.3546054 0.46033543 -0.1170804
0002c0 68 e7 63 be 31 9b 2b 3c fe fc 43 be 67 4b 7e be
       -0.22256243 0.010474012 -0.19139478 -0.24833451
0002d0 cd d8 f8 3d a3 67 1e bf b6 1e b8 be 3f c1 cd 3e
       0.121507265 -0.6187689 -0.3596093 0.40186498
0002e0 1f 4b a7 3c 80 b5 7b 3e 91 86 cf be c4 71 23 be
       0.020421563 0.24580956 -0.40532354 -0.15961367
0002f0 29 d3 98 be db 7e 80 3e 39 d6 8a be 4e 94 bd 3e
       -0.29848602 0.25096783 -0.27116564 0.3702721
000300 f0 b0 22 3e 9a 08 01 bf f0 b1 d8 3d b1 99 24 3f
       0.15887809 -0.5040375 0.10580814 0.64297014
000310 e9 49 9c 3e 8e 4c 05 3e fd 6c 7d 3d 64 72 f9 be
       0.3052514 0.13017485 0.061871517 -0.48720086
000320 b2 47 77 bd b1 b7 5c ba 5f 9f 41 be a6 bf 9b be
       -0.06037111 -0.0008419706 -0.18908451 -0.30419654
000330 52 81 62 3d 6b 08 02 3c a2 96 6a be 7e ce 19 be
       0.05529911 0.007936577 -0.22909024 -0.15020177
000340 cf 03 f6 3d db e2 15 3d a3 3d 34 3e 26 c0 44 3e
       0.12012445 0.0365933 0.17601638 0.19213924
000350 d5 13 99 3e 6d fa da be 36 91 2d be cd 3a 36 3e
       0.29897943 -0.42769185 -0.16949925 0.17795868
000360 2f 9d 98 3e 92 50 a3 3c ec 59 14 3e f9 df 2d 3e
       0.29807422 0.01993588 0.14487427 0.1697997
000370 eb 83 02 be 42 68 23 3e 0b 58 9a be 7d 7c a9 3d
       -0.12745635 0.1595774 -0.30145296 0.082756974
000380 f6 a3 c0 3e 12 1f 64 3e b5 c5 51 3e af a7 5a 3e
       0.37625092 0.22277477 0.20485575 0.21353029
000390 44 51 ae bc a4 56 ca 3e 99 64 2d 3e fa bd a8 bd
       -0.021278985 0.39519227 0.16932906 -0.0823936
0003a0 3a 93 52 3e f7 be 5c be d2 81 1c be 5c 9e 34 bd
       0.20563975 -0.21557222 -0.15283898 -0.044096336
0003b0 61 ad 46 3d 1a 6c 4d be 14 cf 0d 3e f3 f0 1e be
       0.04850519 -0.20060769 0.13848525 -0.15521602
0003c0 d7 85 88 bf df b3 12 be 4c ea 80 bc c5 f9 c3 bc
       -1.0665845 -0.14326428 -0.015736721 -0.02392281
0003d0 3e fc a4 be dc 79 37 be 7a 7f cd 3d e7 02 39 be
       -0.32223696 -0.1791758 0.1003408 -0.18067513
0003e0 f6 70 ee 3a 2d 40 15 be 49 c5 17 be 76 08 3b bd
       0.0018191624 -0.14575262 -0.14821352 -0.045662366
0003f0 0b 06 35 be e4 0f 57 3e c7 9d 9b 3d 44 3f 92 3b
       -0.17678086 0.21002156 0.07598453 0.0044631083

rnn.bias_ih_l0 f4 [32]
000000 2a 2e 60 3a 8d ac 09 be da 50 1e be 5a d0 73 3e
       0.0008551801 -0.13444729 -0.1546053 0.23809949
000010 01 b9 78 3e 26 77 cb be 86 8c f9 3e 70 ad ae 3e
       0.24289323 -0.3973934 0.48740023 0.34116697
000020 bc d2 b6 3d 2d f2 ec be 8a 2d f0 3d c9 ce b0 be
       0.08926913 -0.46278515 0.11727436 -0.34532765
000030 a3 69 da 3a 42 40 09 bd 7b be e6 3d 01 6f 1d 3d
       0.0016663562 -0.033508547 0.112668 0.03843594
000040 50 1a ee bc 0a a2 8b 3e a9 d5 c8 be 36 ed 35 3d
       -0.029065281 0.27272063 -0.3922551 0.044415675
000050 49 20 82 bd 23 21 1f 3d 44 dd 2e 3d 74 c4 68 3e
       -0.06353814 0.03884996 0.042691484 0.22731191
000060 bf 2c c1 be c5 78 80 3d 77 3b e8 3d 28 51 23 3e
       -0.3772945 0.06273035 0.11339467 0.15948927
000070 ba 31 c8 3d 51 75 92 3d 95 07 b1 3e 0c 69 3c be
       0.097751096 0.071512826 0.34576097 -0.18399447

rnn.bias_hh_l0 f4 [32]
000000 aa 1d 33 3e ca a5 2c be 51 e5 df 3e 3d c6 94 be
       0.17491785 -0.16860119 0.43729642 -0.29057494
000010 df 54 84 bc c8 41 82 be 13 c3 05 3e 7a ce a6 3e
       -0.016153751 -0.25440812 0.13062696 0.32579404
000020 fe 24 58 be e5 c4 e8 be 89 94 ce 3c 7f a8 9d be
       -0.21107861 -0.4546272 0.025217311 -0.30792615
000030 87 c0 be 3d 92 e4 5a bd cf af ce 3d 12 79 a4 be
       0.093140654 -0.053440638 0.100921266 -0.3212362
000040 fd cc 7e be 49 5f 4e be 1b 88 9b be 9e 3d c1 3d
       -0.24882884 -0.20153536 -0.30377278 0.09435581
000050 db 42 d5 3d 20 55 0b bd 12 b0 d1 3e be 6f 14 3e
       0.10413142 -0.03401673 0.40954643 0.14495751
000060 30 41 c4 bd 58 ca 8f be 5b 66 81 3e bb 72 b3 3d
       -0.09582746 -0.28084064 0.25273404 0.087621175
000070 1b 7f 4d 3e 51 cb db 3d c0 ea 99 bd 27 f9 3e 3e
       0.20068018 0.10732139 -0.07515478 0.18649732

reg.0.weight f4 [8, 8]
000000 05 9c bc be 0e 0f 91 3d f5 43 ed bd c0 af 99 be
       -0.36837783 0.070829496 -0.115852274 -0.300169
000010 bb aa 83 3e 13 12 a1 3e e8 2c ab be 21 8a 1a bd
       0.25716195 0.31459102 -0.33432698 -0.037729386
000020 97 79 25 be ef 62 fb bd 11 fa 3f 3c 1c d8 a3 3d
       -0.16159664 -0.122747295 0.011717335 0.08000204
000030 ea 12 1e 3e 67 93 cb bd 02 8a 57 3e ac 74 75 be
       0.15436903 -0.09940224 0.2104874 -0.23970288
000040 4b 20 f5 be 70 c5 26 be 84 32 e8 3e ba 09 5b bc
       -0.478762 -0.16286254 0.4535104 -0.013369018
000050 8d 09 8a be af f4 97 bc 80 3c 0e 3d 2e 13 83 3e
       -0.26960412 -0.018549291 0.034725666 0.2560057
000060 ba 86 eb bd a3 ba 68 3e 9b f5 82 be 69 3c 99 3e
       -0.115003064 0.22727446 -0.25578007 0.29928902
000070 1d 13 9e 3d 13 24 a8 be f1 c3 60 bd a0 a6 c0 bd
       0.07718489 -0.32840022 -0.054874364 -0.09406781
000080 d2 63 04 be 2f ef 9d be 13 eb 7b 3c 4b 36 5b 3d
       -0.12928703 -0.30846545 0.01537587 0.053518575
000090 1f bf 2b be f6 68 62 be 54 f5 d2 bd 18 ea 67 bc
       -0.16772126 -0.22110352 -0.10300699 -0.014154933
0000a0 c8 09 7d bd 52 4a fc bd 8f 13 d1 bd 20 16 ba be
       -0.061776906 -0.12318863 -0.10208809 -0.36345005
0000b0 9a ec a7 bc e4 1b fa bc d9 9f 12 be 5c 44 e5 3d
       -0.020498563 -0.030530877 -0.1431879 0.11194679
0000c0 3f 84 7a 3d df 67 dc 3e 9a be be 3e e4 5b f8 3d
       0.061161276 0.43047997 0.37254792 0.12126902
0000d0 91 64 39 bd 3c d7 89 bd 27 ff f4 3d 3c 1f 29 3c
       -0.045261923 -0.06730506 0.11962729 0.010322388
0000e0 fd ff 8e be 66 6c 01 3e eb 28 2d be 4b 3b c7 be
       -0.2792968 0.12639007 -0.1691014 -0.38912424
0000f0 51 bf 71 be a6 e2 20 be 39 32 9e bd 3e 39 ec 3c
       -0.23608138 -0.1571146 -0.07724423 0.028835889

reg.0.bias f4 [8]
000000 4d 9b ea 3e a3 d3 90 be 27 2d ea bd 41 69 52 be
       0.4582161 -0.28286466 -0.114343934 -0.20547964
000010 7b ce 28 be a2 b3 27 3e bd 7c 5f 3d 2f 1c bb bd
       -0.16485016 0.16377118 0.05456232 -0.09136235

reg.2.weight f4 [1, 8]
000000 13 59 ab be bf b1 11 3e 58 df 41 be 5f c4 fc 3d
       -0.33466396 0.14227961 -0.18932855 0.12342142
000010 4e 65 92 bc 48 ee 75 be 27 a0 61 bd fc 1e cb 3c
       -0.017870571 -0.24016678 -0.055084374 0.024795048
